best.pt (torch, 144139 bytes, 20 tensors)

weight f2 [6, 1, 5, 5]
00000000: 1131 1f2c 44ae 34b2 6bb1 a033 bf38 8f39
00000010: c637 ef2d 44b0 0cad 452b b433 7e35 2ea9
00000020: dfab cd1e a828 189e 3cac 65af 4bb2 04b1
00000030: 3528 d12c e92d 822a e5a8 bead 3c96 9626
00000040: 2410 03b0 a9a9 9129 9cb2 0bb9 eab7 98a9
00000050: 8ab4 2fb6 d32e 6c37 9834 af2c 1b37 7837
00000060: 1c32 252d 12a4 16a9 d8ae c434 5e2e e428
00000070: d7aa 32b7 bd23 f037 6f2e 2d32 2fb7 10ba
00000080: b92a db24 3335 1f35 6bb5 10af 3830 142b
00000090: 2c36 fc27 86ab d3aa 1aa8 0baa 9fab 4cb0
000000a0: 15af 7531 1832 4831 ea33 c4b7 6e31 1a2c
000000b0: 87a5 2e34 12b7 7135 3d23 002a 5633 d7b4
000000c0: 1f2e 2929 8b2f 3c1c 16a9 9faf d79a 6433
000000d0: db30 55b0 acae 6f35 b935 62b0 bcb1 2533
000000e0: 0d39 19af d7b2 abaf c339 5da8 d9b2 db26
000000f0: 2e34 3635 e9b0 26ae 1e20 71ac 33b2 1bac
00000100: 1fb5 aaac d635 ea36 6a38 8a30 0135 1e20
00000110: 4bb2 2eb8 20b8 ddb2 6730 ed2d 0d33 e733
00000120: 7435 0eae 5db0 89a4 93b3 83ac
0.1583 0.0644 -0.0979 -0.1938 -0.1693 0.2383 0.5933 0.695
0.4858 0.0927 -0.1333 -0.07886 0.0568 0.2407 0.3433 -0.04047
-0.0615 0.00664 0.03638 -0.00595 -0.06616 -0.11554 -0.1967 -0.1567
0.03287 0.07526 0.09235 0.05084 -0.03824 -0.0897 -0.001522 0.02573
0.0005054 -0.1254 -0.04422 0.0435 -0.2065 -0.6304 -0.4946 -0.0437
-0.2837 -0.3865 0.1066 0.4639 0.287 0.0732 0.444 0.4668
0.1909 0.0804 -0.0159 -0.03973 -0.10693 0.2979 0.0995 0.0382
-0.05344 -0.4497 0.015114 0.496 0.1005 0.193 -0.449 -0.758
0.05252 0.01897 0.325 0.32 -0.3386 -0.11035 0.1318 0.0553
0.3857 0.03119 -0.05878 -0.0533 -0.03204 -0.0472 -0.05954 -0.1343
-0.11066 0.1705 0.1904 0.165 0.2473 -0.4854 0.1697 0.0641
-0.02159 0.2612 -0.442 0.34 0.01414 0.04688 0.2292 -0.3025
0.09564 0.0403 0.11786 0.004135 -0.03973 -0.1191 -0.00334 0.231
0.1517 -0.1354 -0.10425 0.3396 0.3577 -0.137 -0.1792 0.2233
0.6313 -0.1109 -0.2137 -0.1198 0.72 -0.0341 -0.214 0.02678
0.2612 0.3257 -0.1534 -0.09607 0.00804 -0.0694 -0.1937 -0.06415
-0.32 -0.0729 0.3647 0.4321 0.552 0.1418 0.3127 0.00804
-0.1967 -0.5225 -0.5156 -0.2145 0.1376 0.0926 0.2203 0.247
0.3408 -0.0946 -0.1364 -0.01772 -0.2367 -0.0705

bias f2 [6]
00000000: 922f edb0 3b30 2931 882e eea5
0.1183 -0.1539 0.1322 0.1613 0.10205 -0.02316

weight f2 [6]
00000000: c33f 8a39 fa38 4a3b 9a3f 0539
1.94 0.6924 0.622 0.911 1.9 0.6274

bias f2 [6]
00000000: a0b1 4aa9 06b1 66b4 8db3 deb5
-0.1758 -0.04132 -0.157 -0.275 -0.236 -0.3667

running_mean f2 [6]
00000000: 2239 62b0 ff31 d634 bc38 8823
0.6416 -0.137 0.1874 0.3022 0.592 0.01471

running_var f2 [6]
00000000: 861e 4219 1415 1c19 f71d dd11
0.00637 0.002567 0.00124 0.002495 0.005825 0.0007157

weight f2 [16, 6, 5, 5]
00000000: a02c 812d 2f2a 409e 14ae 8fa6 7524 5faa
00000010: 94ad 8eac a328 89a4 e5ac 43b0 01ad c1a9
00000020: ed24 9729 bd30 f230 0d2c 692c 6a2c 9a2b
00000030: 232e b624 8ba3 b59d fea4 1032 bb2e c597
00000040: 1620 512d 3034 3932 0c30 812c 4430 5c2d
00000050: 4a30 a0a0 fbab 1a26 eca9 9eac 33aa 58a1
00000060: ada7 25b4 912a 6a29 889f 402a 5329 c41e
00000070: 3a2b 912a 002b 7dab ab25 b32b c0a9 fc9c
00000080: c9ac e530 7129 68a9 50ac fdab f49f 82aa
00000090: 75a8 ad0e afac 1622 38a7 29ad 71a1 c7a5
000000a0: 0c27 8628 9c29 2a25 da2c 982c 44ac deaa
000000b0: 66ad 34ac 75a8 63af 09b2 3bb2 f5b1 76b0
000000c0: f4b0 55b2 6eb0 4ab0 de21 22aa fb2a e12d
000000d0: c724 78b1 549e 8129 152f 4228 edab 55ac
000000e0: cea8 6c2b 5830 14ae cba9 6c21 2521 afa1
000000f0: 24b1 92ae e6a9 0bac b8ab f7a5 aaa2 0022
00000100: f226 9728 631c 73a9 3527 3225 1824 4e9d
00000110: e92a 53aa 80a4 e5a8 112f a621 a9b0 7db0
00000120: 13ae c42c a1a2 57aa f0ab e9ac b726 49a5
00000130: 13a4 0c2f 8733 bda5 57a4 452e f12b b6a4
00000140: c928 af1a 922d c79e 95aa 72a6 e6ae 4baf
00000150: c1b0 9fb1 91b1 4db3 0116 f624 082b e7a6
00000160: c3a9 1aab 24a0 1c2a ac2f 82a5 e7a4 6831
00000170: 722b 2827 3929 c724 ebac a5a3 97b0 9520
00000180: 2d2e 9429 d7aa 4bac 6bac 5eaf 91ad 492b
00000190: c925 06ac 4eb0 e4ae 2faa e129 83b0 82b0
000001a0: 2eb0 15ac bca8 6bb0 882b 36a9 9fac f9ab
000001b0: 3fac bfac faad e7aa cba4 9e2e 342e c52a
000001c0: c62b 8b8c b9ac aab1 15b3 61ac 85a9 32ad
000001d0: cab1 a8ac 2aac 03ac d3ae 80ac 3431 b1a6
000001e0: e3aa 391e 3a2a b530 c423 8f2d ca31 d233
000001f0: 1f2d b330 acae 1bab c1a8 d3a9 6231 74aa
0.07227 0.086 0.0483 -0.006104 -0.095 -0.02562 0.01741 -0.04977
-0.08716 -0.07117 0.03622 -0.01772 -0.0765 -0.1332 -0.0782 -0.04495
0.01924 0.04367 0.1481 0.1545 0.0633 0.0689 0.069 0.0594
0.0959 0.0184 -0.01473 -0.005573 -0.0195 0.1895 0.10516 -0.001897
0.00798 0.08307 0.2617 0.1945 0.1265 0.0704 0.1333 0.08374
0.134 -0.00903 -0.06235 0.02383 -0.04626 -0.07214 -0.04843 -0.01044
-0.02998 -0.259 0.0513 0.0423 -0.007355 0.04883 0.0416 0.006607
0.05646 0.0513 0.0547 -0.0585 0.02214 0.06015 -0.04492 -0.004868
-0.07477 0.153 0.0425 -0.04224 -0.0674 -0.0624 -0.007767 -0.05084
-0.03482 0.0004075 -0.0732 0.01189 -0.0282 -0.0806 -0.01063 -0.02257
0.02753 0.03534 0.04382 0.02017 0.0758 0.0718 -0.06665 -0.05365
-0.08435 -0.0657 -0.03482 -0.1154 -0.1886 -0.1947 -0.1862 -0.1394
-0.1548 -0.1979 -0.1384 -0.134 0.01146 -0.0479 0.05453 0.09186
0.01866 -0.1709 -0.00618 0.043 0.11066 0.03326 -0.06192 -0.0677
-0.03754 0.05798 0.1357 -0.095 -0.04526 0.01059 0.01005 -0.0111
-0.1606 -0.10266 -0.04608 -0.0632 -0.0603 -0.0233 -0.013016 0.01172
0.02713 0.03586 0.004284 -0.04257 0.02815 0.0203 0.01599 -0.00518
0.054 -0.0494 -0.01758 -0.03824 0.1104 0.01103 -0.1456 -0.1403
-0.0949 0.07446 -0.01295 -0.04953 -0.062 -0.0767 0.02623 -0.02065
-0.01591 0.1101 0.2352 -0.02242 -0.01695 0.09796 0.06204 -0.0184
0.03738 0.003263 0.08704 -0.00662 -0.05142 -0.02518 -0.1078 -0.11395
-0.1486 -0.1757 -0.174 -0.2281 0.001466 0.01938 0.05493 -0.02696
-0.045 -0.05548 -0.00809 0.04773 0.1199 -0.02151 -0.01915 0.169
0.05817 0.02795 0.0408 0.01866 -0.07684 -0.01493 -0.1434 0.00895
0.0965 0.04358 -0.05344 -0.0671 -0.06903 -0.1151 -0.087 0.05692
0.0226 -0.06287 -0.1345 -0.10767 -0.0483 0.04593 -0.141 -0.1409
-0.1306 -0.0638 -0.037 -0.1381 0.05884 -0.0407 -0.0722 -0.0623
-0.06635 -0.07416 -0.0934 -0.05392 -0.01872 0.1034 0.0969 0.0529
0.06073 -0.0002773 -0.0738 -0.177 -0.2213 -0.0684 -0.04312 -0.0812
-0.1809 -0.07275 -0.06506 -0.0627 -0.1066 -0.0703 0.1626 -0.02614
-0.0538 0.006077 0.04865 0.1471 0.01517 0.08685 0.1809 0.2444
0.08 0.1469 -0.10425 -0.0555 -0.03714 -0.0455 0.1682 -0.0504

bias f2 [16]
00000000: 4026 342b 0ca4 ae2c d229 6626 b69f 492c
00000010: 7c1b 182d 062d 541c 53a9 032d 362c b7ac
0.02441 0.05627 -0.01581 0.0731 0.04547 0.025 -0.00753 0.06696
0.003654 0.0796 0.0785 0.004227 -0.0416 0.0783 0.0658 -0.07367

weight f2 [16]
00000000: 0940 f33f 3840 eb40 193f a83f 0740 3f3f
00000010: 0240 7c3f 8a40 3640 b740 4b40 1b40 573f
2.018 1.987 2.11 2.459 1.774 1.914 2.014 1.812
2.004 1.871 2.27 2.105 2.357 2.146 2.053 1.835

bias f2 [16]
00000000: f4b9 83b8 34b8 24bc d5b7 fcb3 deb4 b9b5
00000010: aebb 4bb1 41b8 19b0 f5bd 13bb 13b9 edb7
-0.744 -0.564 -0.5254 -1.035 -0.4895 -0.2495 -0.3042 -0.3577
-0.96 -0.1654 -0.5317 -0.128 -1.489 -0.8843 -0.6343 -0.4954

running_mean f2 [16]
00000000: dcb5 f42a 47ba 5bad 56ab e1b4 adbb 7cb8
00000010: a833 2fb6 782a 80b8 deba 99ba 37be 21bf
-0.3662 0.05432 -0.7847 -0.0837 -0.0573 -0.305 -0.9595 -0.5605
0.2393 -0.3865 0.05054 -0.5625 -0.8584 -0.8247 -1.554 -1.782

running_var f2 [16]
00000000: e83a 093a 383b 463a 5639 d839 c739 fa38
00000010: 5338 7339 223d 483a 1c39 9539 8839 0439
0.8633 0.7544 0.9023 0.784 0.667 0.7305 0.722 0.622
0.5405 0.681 1.283 0.785 0.6387 0.6978 0.6914 0.627

weight f2 [120, 400]
00000000: 0c29 7627 639e 971d 4729 46a3 3ba7 74ac
00000010: a3ac 33aa e59a 88a0 a8a9 49ab 93ab 2f28
00000020: c823 4318 8f12 c0a4 be26 8c23 4224 b028
00000030: 559c b52a 14a9 d4a9 01ab d6a9 8e1c 541b
00000040: 04a0 a128 801f fe94 8092 6a1d 012d 8626
00000050: 49aa 8aa8 b526 6b2a 7ba1 8fa8 7aa5 d81e
00000060: e61d 20a3 8a1e 1b29 9c28 182c 702c bc1d
00000070: 5f26 fb2b 692a 2c2a b29d 4e25 0628 a8a1
00000080: 6e11 52a2 26a2 3ba0 bfa9 b0a8 fa20 c19e
00000090: 13a0 55a0 2418 7fa0 e2a1 25a2 37a1 8aa8
000000a0: a99c 721d 31a3 0f26 c198 d099 b6a4 68a4
000000b0: 06a4 c8a8 fe93 1821 55a0 4da5 29a6 3f25
000000c0: a3a0 55a4 5021 64a1 aea1 2f20 74a2 d8a3
000000d0: 4da5 d918 8d23 cea5 811d f711 5426 4d9a
000000e0: e598 1b24 49a6 80a4 cba5 3d21 c124 05a1
000000f0: 5a9d 0d24 4028 0225 191e 3126 eda4 d5a7
00000100: 4ba2 4915 e324 949d 2dac 7faa 1da9 429e
00000110: 95a5 76ac 01aa 4aa8 3125 c99e 17a9 2ea6
00000120: d9a4 8da0 8417 41a3 e31f aa23 7128 4728
00000130: b92e 5f2b 9518 762c 8220 6080 601a 0faa
00000140: 7a20 43ac 02ad a1ad 7cae 7a90 7fa9 4dad
00000150: 60ac a3aa 4127 261c bba9 26ab 18a9 1126
00000160: 1d10 f294 13a8 66a9 0326 cea0 3a9b 2d9e
00000170: f816 7626 50a1 a098 bca3 341b e2a1 0ba9
00000180: 54a5 eaa7 7fa8 69a2 06a3 8da2 ada5 62a8
00000190: 442a 7726 43a0 6b9e c4a8 2591 5220 06a4
000001a0: bb9c 72aa c09b d099 5da4 2aa9 4eac 9e25
000001b0: ef23 1d28 2b24 36a1 0021 9f9e ed1d a427
000001c0: f021 3d25 892d 0e2c 5420 97a8 0e2c 352a
000001d0: 0e29 8525 131f 1428 3a9f 81a7 bdaa be92
000001e0: e728 c829 3619 07a9 ce29 ac22 a524 0f25
000001f0: 0c28 3d2b ce21 b69d 1ba9 8aa1 4ea2 ac1a
0.03943 0.02914 -0.006237 0.00546 0.04123 -0.014206 -0.02824 -0.0696
-0.07245 -0.04843 -0.003366 -0.00885 -0.0442 -0.05692 -0.05917 0.03268
0.0152 0.00208 0.0008006 -0.01855 0.02634 0.01474 0.01663 0.03662
-0.00423 0.0524 -0.03967 -0.04553 -0.05472 -0.0456 0.004448 0.003578
-0.00784 0.03616 0.007324 -0.001219 -0.0007935 0.005287 0.0782 0.02548
-0.0491 -0.03546 0.0262 0.05014 -0.010704 -0.0356 -0.0214 0.006683
0.00576 -0.013916 0.006386 0.0399 0.036 0.06396 0.06934 0.0056
0.02489 0.06235 0.05008 0.04822 -0.00556 0.02072 0.03143 -0.01105
0.000663 -0.012344 -0.01201 -0.00826 -0.0449 -0.03662 0.00972 -0.006596
-0.00796 -0.00846 0.002022 -0.00878 -0.01149 -0.012 -0.010185 -0.03546
-0.00455 0.005318 -0.014046 0.02367 -0.002321 -0.002838 -0.0184 -0.01721
-0.01572 -0.03735 -0.0009756 0.00995 -0.00846 -0.0207 -0.02406 0.0205
-0.009056 -0.01692 0.010376 -0.01053 -0.01109 0.00817 -0.0126 -0.01532
-0.0207 0.002367 0.01475 -0.02267 0.005375 0.000728 0.02472 -0.003077
-0.00239 0.01604 -0.02455 -0.01758 -0.02263 0.01023 0.01857 -0.0098
-0.005226 0.01582 0.0332 0.01956 0.005955 0.02419 -0.01924 -0.0306
-0.01229 0.00129 0.01909 -0.005447 -0.06525 -0.05075 -0.03995 -0.00611
-0.0218 -0.0697 -0.0469 -0.0335 0.02028 -0.006626 -0.03976 -0.02414
-0.01894 -0.00889 0.001835 -0.01417 0.0077 0.01497 0.0347 0.03342
0.10504 0.0576 0.002237 0.0697 0.008804 -5.7e-06 0.003113 -0.04733
0.00874 -0.0666 -0.07825 -0.08795 -0.1013 -0.0005465 -0.04294 -0.0828
-0.06836 -0.05185 0.02834 0.00405 -0.04477 -0.05585 -0.0398 0.0237
0.000502 -0.001207 -0.03183 -0.04218 0.02348 -0.009384 -0.003529 -0.00603
0.001701 0.02524 -0.010376 -0.002258 -0.01511 0.003517 -0.01149 -0.0394
-0.02081 -0.03091 -0.03513 -0.01252 -0.01372 -0.012794 -0.02217 -0.03424
0.04895 0.02525 -0.00832 -0.006268 -0.03723 -0.000628 0.00844 -0.01572
-0.00462 -0.05035 -0.003784 -0.002838 -0.01704 -0.04034 -0.06726 0.02194
0.015495 0.03214 0.01628 -0.01018 0.009766 -0.006466 0.005787 0.02985
0.0116 0.02046 0.0865 0.06335 0.00845 -0.03586 0.06335 0.0485
0.0395 0.02156 0.00691 0.03186 -0.007057 -0.02931 -0.05264 -0.000823
0.0383 0.04517 0.002544 -0.03928 0.04535 0.01303 0.01814 0.01976
0.03162 0.05655 0.01134 -0.005577 -0.0399 -0.01082 -0.012314 0.003258

bias f2 [120]
00000000: 942e d2a9 312b e49f 422d d525 3326 cf2c
00000010: b22b 2024 82a9 4128 86a6 6f2a 3421 039d
00000020: 7029 1ba8 1c2f 1f29 b920 1fa5 422d 99aa
00000030: 60a8 032a 2529 ee23 b225 b52d e929 a72a
00000040: 6e26 372d f0a7 09a1 042b 07a5 3fa8 6397
00000050: 2226 6429 062d e69c 2e2a eca9 5f2c 022d
00000060: c127 212c 6a27 a2ac 86ac 8d30 4a31 d92c
00000070: 8727 1b2a c6ab 7828 fc2d 0aa3 1c2c 72ac
00000080: e12e 1e2c dc2a cea5 74a7 da29 7c2f 4f2c
00000090: 332c c42a 1d29 91a9 c32a 9dac 7320 622b
000000a0: d425 9f9f 7ca6 5b2a 3e21 c429 7925 faa2
000000b0: 21aa b129 00a7 ec27 2229 852a 34a3 f497
000000c0: 492c 95aa 032c 5a2d 08a9 5821 5797 2da1
000000d0: 822b b52a f524 102a 52a9 ff2d 6b2a 632a
000000e0: eea4 d92c fc25 499c ed30 7826 dc2a f825
0.1028 -0.04547 0.05618 -0.007706 0.08215 0.02278 0.02422 0.07513
0.06012 0.01611 -0.04303 0.03323 -0.02548 0.05026 0.01016 -0.004894
0.04248 -0.03207 0.1111 0.04 0.009224 -0.02 0.08215 -0.05154
-0.03418 0.04697 0.0402 0.01549 0.02225 0.0892 0.04617 0.05197
0.02512 0.0815 -0.031 -0.009834 0.0548 -0.01964 -0.03317 -0.001803
0.02396 0.0421 0.0785 -0.004784 0.04828 -0.04626 0.0683 0.07825
0.03029 0.0645 0.02896 -0.0724 -0.0707 0.1422 0.1653 0.07574
0.0294 0.0477 -0.06073 0.0349 0.0935 -0.01375 0.0642 -0.06946
0.1075 0.06433 0.0536 -0.02267 -0.02911 0.04572 0.11694 0.0673
0.0656 0.05286 0.03995 -0.0435 0.05283 -0.0721 0.00869 0.05768
0.02277 -0.007442 -0.02533 0.04965 0.01024 0.04504 0.02138 -0.013626
-0.04788 0.04446 -0.02734 0.03094 0.0401 0.05093 -0.01407 -0.001942
0.06696 -0.05142 0.0627 0.0836 -0.0393 0.01044 -0.001792 -0.01011
0.05865 0.0524 0.01936 0.04736 -0.04156 0.0937 0.05014 0.0499
-0.01926 0.07574 0.02338 -0.004185 0.1539 0.02527 0.0536 0.02332

weight f2 [84, 120]
00000000: 6c22 c698 0314 2ca3 1e26 d8a6 4b24 ce27
00000010: 2f9d 2d02 309d 5419 929c 8015 e3a0 48a6
00000020: 5215 6ea1 5f18 1021 7529 49a1 23a6 4b99
00000030: e5a4 22a0 85a1 cc27 3422 f421 59a2 97a4
00000040: 4b1e e8a4 ba98 2724 e41c 4ea5 2522 851f
00000050: 10a6 0925 16a5 32a6 eba5 1c9b 9b29 0126
00000060: a3a3 9ca7 8724 ee1d 4003 6520 5121 2b20
00000070: 5ea5 d19f 3da4 47a5 b5a4 071f 2f1f dea0
00000080: 20a5 e49d 941a c19e 1da1 8627 a5a0 2026
00000090: 67a0 fc26 3f9b 8729 9921 8d25 f226 3328
000000a0: 3e21 5b1f 88a2 fda0 f5a1 df1f 48a4 4ba2
000000b0: a325 7524 9b16 2b24 9fa5 8fa3 751a 7924
000000c0: 83a1 301b 749e 94a7 7b25 b4a5 db1c f724
000000d0: 7a27 89a3 da24 8798 629c 25a5 05a6 f7a6
000000e0: 0625 b0a0 971c 79a4 ae97 4721 9da2 dca4
000000f0: 189e ed98 8321 319c 6ca1 0ca1 8b10 4a9b
00000100: 5b9e 221e 4f10 9223 9020 47a1 3822 6f24
00000110: a49f ce9b a326 bd9e 009e 28a0 d09d 839a
00000120: 5523 b29c 1f22 58a3 88a1 7922 f523 051f
00000130: b820 0aa2 4111 a31f 25a3 461c a3a5 ca9e
00000140: 391e e6a1 5a20 70a1 3e22 fc98 d79f d521
00000150: 7fa1 4225 8615 dba2 b118 711c fd1c 9b0c
00000160: 52a0 f2a6 839c fb1f fc24 7f1e cd1d 461a
00000170: f8a4 fea6 ba22 1b1f 2ea4 bf99 99a1 ce9b
00000180: 9124 4824 d821 1728 e69d e4a2 5d9d 5821
00000190: 86a2 7b19 939b 79a2 0424 ae15 99a1 371a
000001a0: dfa1 3ea0 6aa4 e2a2 da1c e716 091a 221a
000001b0: 4217 bd20 3ea1 809c 4aa5 1b1e e595 5ba5
000001c0: 6724 679c df1e 1c26 d7a3 6420 4998 c519
000001d0: a024 1a19 bc94 7c9c 6326 f29e 9713 c720
000001e0: 84a9 2217 d526 7c22 8927 85a8 cf2b eda3
000001f0: 73a6 cb9d bc29 cd9f f623 4ca0 eb20 5695
0.01254 -0.00233 0.000979 -0.01401 0.0239 -0.02673 0.01677 0.03049
-0.005062 3.32e-05 -0.005066 0.002602 -0.004463 0.001343 -0.009544 -0.02454
0.001299 -0.010605 0.002134 0.00989 0.04263 -0.01032 -0.02397 -0.002584
-0.01912 -0.00807 -0.01078 0.03046 0.012115 0.01163 -0.0124 -0.01793
0.006145 -0.01917 -0.002308 0.01622 0.004776 -0.02072 0.012 0.007343
-0.02368 0.01967 -0.01987 -0.0242 -0.02312 -0.003471 0.0438 0.02345
-0.014915 -0.02972 0.01768 0.00579 4.96e-05 0.00858 0.01038 0.00814
-0.02097 -0.007633 -0.01656 -0.02061 -0.01839 0.006863 0.007015 -0.00951
-0.02002 -0.005753 0.003212 -0.006596 -0.00999 0.02939 -0.00907 0.02393
-0.0086 0.02728 -0.003538 0.04318 0.01093 0.02168 0.02713 0.0328
0.01024 0.007183 -0.01276 -0.00974 -0.011635 0.007687 -0.01672 -0.01229
0.02202 0.01741 0.001613 0.01628 -0.02196 -0.01476 0.003153 0.01747
-0.010765 0.00351 -0.0063 -0.0296 0.02141 -0.02228 0.00474 0.0194
0.0292 -0.01472 0.01895 -0.00221 -0.00428 -0.0201 -0.02351 -0.0272
0.01962 -0.009155 0.004482 -0.01747 -0.001875 0.01031 -0.01292 -0.01898
-0.00595 -0.002405 0.010765 -0.004093 -0.01059 -0.00986 0.0005546 -0.00356
-0.006207 0.00599 0.000526 0.014786 0.00891 -0.01031 0.012146 0.01732
-0.00746 -0.00381 0.02592 -0.00658 -0.00586 -0.00812 -0.005676 -0.00318
0.01432 -0.004585 0.011955 -0.01434 -0.0108 0.01264 0.01554 0.006855
0.00922 -0.011795 0.0006413 0.007458 -0.013954 0.004173 -0.02202 -0.00663
0.006077 -0.01152 0.0085 -0.01062 0.01219 -0.002434 -0.007656 0.01139
-0.010735 0.02054 0.0013485 -0.01339 0.00229 0.004337 0.00487 0.000281
-0.00844 -0.02713 -0.004406 0.007793 0.01947 0.006344 0.005665 0.003063
-0.01941 -0.02731 0.01314 0.00694 -0.01633 -0.002806 -0.01093 -0.00381
0.01784 0.01672 0.01141 0.03195 -0.00576 -0.01346 -0.005238 0.01044
-0.01274 0.002676 -0.003698 -0.01264 0.01569 0.001387 -0.01093 0.003035
-0.01147 -0.008286 -0.01724 -0.01344 0.004738 0.001685 0.002947 0.002995
0.001772 0.009254 -0.01024 -0.004395 -0.02066 0.005962 -0.001439 -0.02092
0.0172 -0.0043 0.00671 0.02386 -0.01531 0.008575 -0.002092 0.002817
0.01807 0.002491 -0.001156 -0.00438 0.02495 -0.006783 0.0009265 0.00933
-0.0431 0.001741 0.02669 0.012665 0.02943 -0.0353 0.061 -0.01548
-0.02519 -0.005657 0.0448 -0.007618 0.01555 -0.00839 0.009605 -0.001303

bias f2 [84]
00000000: 4128 182d 9526 5a2b 062e 622c 6d2f 3b9e
00000010: e7ac 19a1 5431 2baa 2cab 2a26 052f 9930
00000020: b228 d923 2c30 ed2d 8d2c b9a9 252a 142d
00000030: acaa cda1 0c2d ab29 091c 8c1e 2224 1930
00000040: 4b1f e0a9 be2f dd2c 7d32 0aa4 f12f e92a
00000050: ce31 1229 3c32 652e 442f db23 9ba1 cc2b
00000060: 7f19 21a5 43a2 7c32 74a6 d327 5ea6 a5aa
00000070: ffa9 3896 5330 6428 6131 c62e d5a2 6932
00000080: 272a 382c dc2b 8d28 0ba9 2325 d22e ecab
00000090: 0a28 3ba6 a92a 962c f02b 99a4 82ab e229
000000a0: fe2c 1f32 d612 7d2c
0.03323 0.0796 0.02571 0.05743 0.0941 0.0685 0.116 -0.006084
-0.0766 -0.00996 0.1665 -0.0482 -0.05603 0.02408 0.1097 0.1437
0.03668 0.01533 0.1304 0.0926 0.0711 -0.0447 0.048 0.07935
-0.05212 -0.01133 0.07886 0.04428 0.00394 0.006393 0.01614 0.128
0.007122 -0.0459 0.121 0.076 0.2028 -0.01578 0.1241 0.054
0.1814 0.0396 0.1948 0.0999 0.1135 0.01534 -0.01095 0.0609
0.002684 -0.02003 -0.01223 0.2026 -0.0252 0.03056 -0.02487 -0.0519
-0.04684 -0.001518 0.1351 0.0343 0.1681 0.10583 -0.01334 0.2003
0.04807 0.0659 0.0614 0.03555 -0.0394 0.02007 0.10657 -0.0619
0.03156 -0.02434 0.05203 0.07166 0.062 -0.01796 -0.05865 0.04596
0.078 0.1913 0.0008345 0.0701

weight f2 [10, 84]
00000000: 8b2d a822 c4a9 09a4 382c 7c31 f0b1 06a7
00000010: 76ad f094 6fb0 4b28 88aa cb33 3ab0 29b2
00000020: 63a9 9f24 6c32 6faf 73af 2e29 bfb2 b3ae
00000030: e2a4 3026 8925 85ad 9027 d6ae 7b2d 84b2
00000040: 1caf e428 87b0 1a28 6f2c 4fa5 762d 33a7
00000050: 58ac 5fb2 07a9 a72c 2fb2 0d37 77b1 73a8
00000060: 652e 4836 0931 8032 b693 a336 1925 d8a2
00000070: 9dae 0626 7b30 51b2 53ad 5834 0828 fdaf
00000080: 502c 1296 9b2a b1a4 3ba5 8628 5831 ce29
00000090: 6823 2db3 379d c8a9 4cb1 279c b92e 6dae
000000a0: c72d c8b1 b323 cba1 30aa f31e 61ac a223
000000b0: cf9c 08b0 4d2c 70b1 aeaf 9d21 56b1 2b23
000000c0: 0bab 90b0 13ad 6cb2 6734 5224 2d2f 66aa
000000d0: db28 9225 0aa8 39b1 a21d 4fae f41e 98a6
000000e0: 88ac bb33 d825 fcb4 852e a131 9926 5235
000000f0: e1aa bb22 9531 979b d9ab 82af 72b3 3132
00000100: a1a7 8624 6f36 3728 a5ad 93af 5ba8 dcac
00000110: ad97 9f99 5ab3 3321 91b2 03a8 07b3 1f34
00000120: 57ac 10b0 2e2f 5634 4cb0 229a 0325 b9b0
00000130: ddaa e6b4 70b4 d6a1 62ab 872c 2138 a8ab
00000140: a330 b015 9129 d7b3 7c35 8835 b618 f7a5
00000150: f2a7 3b29 5819 a8a5 24ac cd29 0cb2 acae
00000160: 60ac 34a5 1c33 d1a4 77a5 5932 0c31 3534
00000170: aea8 f328 17a5 b5a9 bfb0 d92c a42e 0f37
00000180: a722 b22a 42a4 9333 7ca1 51b0 2e28 9baa
00000190: 47a5 9bac e0ad e9af 86b4 6ca8 3eb1 e1a3
000001a0: a3b1 acb1 abb2 78b0 4eb2 9780 bfaf 322f
000001b0: ac2e 0b31 a0b1 f527 3b23 06b3 202f 2999
000001c0: 0d36 a7aa c9b1 222d 29a5 442e 572a e937
000001d0: 84b1 711e 37af b9aa 4728 f2ad 63af f8a8
000001e0: e92e 9b1c 5433 2932 27a4 2133 acaa 9bb0
000001f0: 37af 8bb2 77a2 3220 e72b dd0f 8bad dba0
0.0866 0.013 -0.04504 -0.01576 0.0659 0.1714 -0.1855 -0.02744
-0.0853 -0.001205 -0.1385 0.03354 -0.05103 0.2435 -0.1321 -0.1925
-0.04208 0.01805 0.2007 -0.11615 -0.1164 0.04047 -0.2108 -0.1047
-0.01907 0.02417 0.02162 -0.08624 0.02954 -0.1068 0.08563 -0.2036
-0.1111 0.0382 -0.1415 0.03204 0.0693 -0.02074 0.0853 -0.02812
-0.0679 -0.1991 -0.03928 0.0727 -0.1932 0.4407 -0.1708 -0.03476
0.0999 0.3926 0.1573 0.2031 -0.0009413 0.4148 0.01991 -0.01337
-0.10333 0.02353 0.14 -0.1974 -0.0832 0.2715 0.0315 -0.1248
0.0674 -0.001482 0.0516 -0.01833 -0.02043 0.03534 0.167 0.04535
0.014465 -0.2242 -0.005093 -0.04517 -0.1655 -0.004055 0.10504 -0.1004
0.0903 -0.1807 0.01504 -0.011314 -0.04834 0.006786 -0.0684 0.01491
-0.004696 -0.126 0.0672 -0.1699 -0.12 0.01096 -0.1667 0.014
-0.05502 -0.1426 -0.0793 -0.2007 0.2751 0.01688 0.1121 -0.05
0.03793 0.02176 -0.03156 -0.1632 0.0055 -0.0986 0.00679 -0.02576
-0.0708 0.2416 0.02283 -0.3115 0.10187 0.1759 0.02577 0.3325
-0.05374 0.013145 0.1744 -0.003706 -0.0613 -0.1173 -0.2327 0.1935
-0.0298 0.01767 0.402 0.03293 -0.0882 -0.11835 -0.03403 -0.0759
-0.001874 -0.002745 -0.2297 0.010155 -0.2052 -0.03134 -0.2196 0.2576
-0.0678 -0.127 0.1122 0.271 -0.1343 -0.002995 0.01958 -0.1476
-0.05362 -0.3062 -0.2773 -0.0114 -0.05768 0.07074 0.516 -0.0598
0.1449 0.001389 0.0435 -0.245 0.3428 0.3457 0.0023 -0.0233
-0.03104 0.04086 0.00261 -0.0221 -0.0647 0.04532 -0.189 -0.10425
-0.06836 -0.02032 0.2222 -0.01881 -0.02135 0.1984 0.1577 0.263
-0.03656 0.03867 -0.01988 -0.0446 -0.1483 0.07574 0.10376 0.4412
0.01299 0.0523 -0.01663 0.2367 -0.01071 -0.1349 0.03265 -0.0516
-0.02061 -0.07196 -0.0918 -0.1236 -0.2827 -0.03455 -0.1638 -0.01539
-0.1761 -0.1772 -0.2084 -0.1396 -0.197 -9e-06 -0.12103 0.1124
0.10425 0.1576 -0.1758 0.03108 0.01412 -0.2195 0.1113 -0.00252
0.3782 -0.05197 -0.1808 0.0802 -0.02016 0.0979 0.04953 0.4944
-0.1724 0.00629 -0.11273 -0.05252 0.03342 -0.0929 -0.1154 -0.03882
0.108 0.004498 0.229 0.1925 -0.01622 0.2228 -0.05212 -0.1439
-0.11273 -0.2045 -0.01263 0.008194 0.06174 0.00048 -0.0866 -0.00948

bias f2 [10]
00000000: a728 6bac 452d c42f 4a30 0d21 73b4 b992
00000010: 192f 63ab
0.03635 -0.06903 0.08234 0.12134 0.134 0.009865 -0.278 -0.0008206
0.1109 -0.0577

mean f4 [3]
00000000: 0000 0000 0000 0000 0000 0000
0.0 0.0 0.0

std f4 [3]
00000000: 0000 803f 0000 803f 0000 803f
1.0 1.0 1.0
